…
INFO - 11/27/25 00:49:38 - 0:00:00 - Running command: python train.py --reload_model_snipenc './weights/snip-10dmax.pth' --reload_model_e2edec '/sfs/xcy/e2e.pth' --freeze_encoder True --batch_size 64 --dump_path './dump' --max_input_dimension 10 --n_steps_per_epoch 1000 --max_epoch 100000 --exp_name snipe2e --exp_id 'run-test' --lr '4e-5' --latent_dim 512 --save_periodic 10 --n_dec_layers 16

INFO - 11/27/25 00:49:38 - 0:00:00 - vocabulary: 10218 float words, 10277 equation words
INFO - 11/27/25 00:49:38 - 0:00:00 - Training tasks: functions
DEBUG - 11/27/25 00:49:39 - 0:00:01 - LinearPointEmbedder(
                                        (embeddings): Embedding(10218, 64, padding_idx=8)
                                        (hidden_layers): ModuleList(
                                          (0): Linear(in_features=2112, out_features=2112, bias=True)
                                        )
                                        (fc): Linear(in_features=2112, out_features=512, bias=True)
                                      ): LinearPointEmbedder(
                                        (embeddings): Embedding(10218, 64, padding_idx=8)
                                        (hidden_layers): ModuleList(
                                          (0): Linear(in_features=2112, out_features=2112, bias=True)
                                        )
                                        (fc): Linear(in_features=2112, out_features=512, bias=True)
                                      )
DEBUG - 11/27/25 00:49:39 - 0:00:01 - SNIP_TransformerModel(
                                        (position_embeddings): Embedding(4096, 512)
                                        (layer_norm_emb): LayerNorm((512,), eps=1e-12, elementwise_affine=True)
                                        (attentions): ModuleList(
                                          (0-7): 8 x MultiHeadAttention(
                                            (q_lin): Linear(in_features=512, out_features=512, bias=True)
                                            (k_lin): Linear(in_features=512, out_features=512, bias=True)
                                            (v_lin): Linear(in_features=512, out_features=512, bias=True)
                                            (out_lin): Linear(in_features=512, out_features=512, bias=True)
                                          )
                                        )
                                        (layer_norm1): ModuleList(
                                          (0-7): 8 x LayerNorm((512,), eps=1e-12, elementwise_affine=True)
                                        )
                                        (ffns): ModuleList(
                                          (0-7): 8 x TransformerFFN(
                                            (midlin): ModuleList()
                                            (lin1): Linear(in_features=512, out_features=2048, bias=True)
                                            (lin2): Linear(in_features=2048, out_features=512, bias=True)
                                          )
                                        )
                                        (layer_norm2): ModuleList(
                                          (0-7): 8 x LayerNorm((512,), eps=1e-12, elementwise_affine=True)
                                        )
                                        (glob_attn_module): Sequential(
                                          (0): Linear(in_features=512, out_features=1, bias=True)
                                          (1): Softmax(dim=1)
                                        )
                                        (bottleneck_module): BaseBottleneck(
                                          (fc1): Linear(in_features=512, out_features=512, bias=True)
                                        )
                                        (z_projection): Linear(in_features=512, out_features=512, bias=True)
                                      ): SNIP_TransformerModel(
                                        (position_embeddings): Embedding(4096, 512)
                                        (layer_norm_emb): LayerNorm((512,), eps=1e-12, elementwise_affine=True)
                                        (attentions): ModuleList(
                                          (0-7): 8 x MultiHeadAttention(
                                            (q_lin): Linear(in_features=512, out_features=512, bias=True)
                                            (k_lin): Linear(in_features=512, out_features=512, bias=True)
                                            (v_lin): Linear(in_features=512, out_features=512, bias=True)
                                            (out_lin): Linear(in_features=512, out_features=512, bias=True)
                                          )
                                        )
                                        (layer_norm1): ModuleList(
                                          (0-7): 8 x LayerNorm((512,), eps=1e-12, elementwise_affine=True)
                                        )
                                        (ffns): ModuleList(
                                          (0-7): 8 x TransformerFFN(
                                            (midlin): ModuleList()
                                            (lin1): Linear(in_features=512, out_features=2048, bias=True)
                                            (lin2): Linear(in_features=2048, out_features=512, bias=True)
                                          )
                                        )
                                        (layer_norm2): ModuleList(
                                          (0-7): 8 x LayerNorm((512,), eps=1e-12, elementwise_affine=True)
                                        )
                                        (glob_attn_module): Sequential(
                                          (0): Linear(in_features=512, out_features=1, bias=True)
                                          (1): Softmax(dim=1)
                                        )
                                        (bottleneck_module): BaseBottleneck(
                                          (fc1): Linear(in_features=512, out_features=512, bias=True)
                                        )
                                        (z_projection): Linear(in_features=512, out_features=512, bias=True)
                                      )
DEBUG - 11/27/25 00:49:39 - 0:00:01 - TransformerModel(
                                        (position_embeddings): Embedding(4096, 512)
                                        (embeddings): Embedding(10292, 512, padding_idx=82)
                                        (layer_norm_emb): LayerNorm((512,), eps=1e-12, elementwise_affine=True)
                                        (attentions): ModuleList(
                                          (0-15): 16 x MultiHeadAttention(
                                            (q_lin): Linear(in_features=512, out_features=512, bias=True)
                                            (k_lin): Linear(in_features=512, out_features=512, bias=True)
                                            (v_lin): Linear(in_features=512, out_features=512, bias=True)
                                            (out_lin): Linear(in_features=512, out_features=512, bias=True)
                                          )
                                        )
                                        (layer_norm1): ModuleList(
                                          (0-15): 16 x LayerNorm((512,), eps=1e-12, elementwise_affine=True)
                                        )
                                        (ffns): ModuleList(
                                          (0-15): 16 x TransformerFFN(
                                            (midlin): ModuleList()
                                            (lin1): Linear(in_features=512, out_features=2048, bias=True)
                                            (lin2): Linear(in_features=2048, out_features=512, bias=True)
                                          )
                                        )
                                        (layer_norm2): ModuleList(
                                          (0-15): 16 x LayerNorm((512,), eps=1e-12, elementwise_affine=True)
                                        )
                                        (layer_norm15): ModuleList(
                                          (0-15): 16 x LayerNorm((512,), eps=1e-12, elementwise_affine=True)
                                        )
                                        (encoder_attn): ModuleList(
                                          (0-15): 16 x MultiHeadAttention(
                                            (q_lin): Linear(in_features=512, out_features=512, bias=True)
                                            (k_lin): Linear(in_features=512, out_features=512, bias=True)
                                            (v_lin): Linear(in_features=512, out_features=512, bias=True)
                                            (out_lin): Linear(in_features=512, out_features=512, bias=True)
                                          )
                                        )
                                        (proj): Linear(in_features=512, out_features=10292, bias=True)
                                      ): TransformerModel(
                                        (position_embeddings): Embedding(4096, 512)
                                        (embeddings): Embedding(10292, 512, padding_idx=82)
                                        (layer_norm_emb): LayerNorm((512,), eps=1e-12, elementwise_affine=True)
                                        (attentions): ModuleList(
                                          (0-15): 16 x MultiHeadAttention(
                                            (q_lin): Linear(in_features=512, out_features=512, bias=True)
                                            (k_lin): Linear(in_features=512, out_features=512, bias=True)
                                            (v_lin): Linear(in_features=512, out_features=512, bias=True)
                                            (out_lin): Linear(in_features=512, out_features=512, bias=True)
                                          )
                                        )
                                        (layer_norm1): ModuleList(
                                          (0-15): 16 x LayerNorm((512,), eps=1e-12, elementwise_affine=True)
                                        )
                                        (ffns): ModuleList(
                                          (0-15): 16 x TransformerFFN(
                                            (midlin): ModuleList()
                                            (lin1): Linear(in_features=512, out_features=2048, bias=True)
                                            (lin2): Linear(in_features=2048, out_features=512, bias=True)
                                          )
                                        )
                                        (layer_norm2): ModuleList(
                                          (0-15): 16 x LayerNorm((512,), eps=1e-12, elementwise_affine=True)
                                        )
                                        (layer_norm15): ModuleList(
                                          (0-15): 16 x LayerNorm((512,), eps=1e-12, elementwise_affine=True)
                                        )
                                        (encoder_attn): ModuleList(
                                          (0-15): 16 x MultiHeadAttention(
                                            (q_lin): Linear(in_features=512, out_features=512, bias=True)
                                            (k_lin): Linear(in_features=512, out_features=512, bias=True)
                                            (v_lin): Linear(in_features=512, out_features=512, bias=True)
                                            (out_lin): Linear(in_features=512, out_features=512, bias=True)
                                          )
                                        )
                                        (proj): Linear(in_features=512, out_features=10292, bias=True)
                                      )
DEBUG - 11/27/25 00:49:39 - 0:00:01 - SNIP_E2E_MAP(
                                        (linear1): Linear(in_features=512, out_features=102400, bias=True)
                                        (relu): ReLU()
                                        (linear2): Linear(in_features=512, out_features=512, bias=True)
                                      ): SNIP_E2E_MAP(
                                        (linear1): Linear(in_features=512, out_features=102400, bias=True)
                                        (relu): ReLU()
                                        (linear2): Linear(in_features=512, out_features=512, bias=True)
                                      )
INFO - 11/27/25 00:49:39 - 0:00:01 - Number of parameters (embedder): 6198464
INFO - 11/27/25 00:49:39 - 0:00:01 - Number of parameters (encoder_y): 27843073
INFO - 11/27/25 00:49:39 - 0:00:01 - Number of parameters (decoder): 74642484
INFO - 11/27/25 00:49:39 - 0:00:01 - Number of parameters (mapper): 52793856
INFO - 11/27/25 00:50:41 - 0:00:00 - ============ Initialized logger ============
…
